{"class_name": "Sequential", "keras_version": "2.0.4", "config": [{"class_name": "Embedding", "config": {"embeddings_initializer": {"class_name": "RandomUniform", "config": {"maxval": 0.05, "seed": null, "minval": -0.05}}, "name": "embedding_4", "dtype": "int32", "output_dim": 100, "trainable": true, "embeddings_regularizer": null, "input_dim": 125290, "mask_zero": false, "embeddings_constraint": null, "batch_input_shape": [null, 500], "activity_regularizer": null, "input_length": 500}}, {"class_name": "Conv1D", "config": {"kernel_constraint": null, "kernel_initializer": {"class_name": "VarianceScaling", "config": {"distribution": "uniform", "scale": 1.0, "seed": null, "mode": "fan_avg"}}, "name": "conv1d_4", "bias_regularizer": null, "bias_constraint": null, "activation": "relu", "trainable": true, "padding": "same", "strides": [1], "dilation_rate": [1], "kernel_regularizer": null, "filters": 32, "bias_initializer": {"class_name": "Zeros", "config": {}}, "use_bias": true, "activity_regularizer": null, "kernel_size": [3]}}, {"class_name": "MaxPooling1D", "config": {"padding": "valid", "strides": [2], "trainable": true, "name": "max_pooling1d_4", "pool_size": [2]}}, {"class_name": "Flatten", "config": {"trainable": true, "name": "flatten_2"}}, {"class_name": "Dense", "config": {"kernel_initializer": {"class_name": "VarianceScaling", "config": {"distribution": "uniform", "scale": 1.0, "seed": null, "mode": "fan_avg"}}, "name": "dense_5", "kernel_constraint": null, "bias_regularizer": null, "bias_constraint": null, "activation": "relu", "trainable": true, "kernel_regularizer": null, "bias_initializer": {"class_name": "Zeros", "config": {}}, "units": 250, "use_bias": true, "activity_regularizer": null}}, {"class_name": "Dense", "config": {"kernel_initializer": {"class_name": "VarianceScaling", "config": {"distribution": "uniform", "scale": 1.0, "seed": null, "mode": "fan_avg"}}, "name": "dense_6", "kernel_constraint": null, "bias_regularizer": null, "bias_constraint": null, "activation": "sigmoid", "trainable": true, "kernel_regularizer": null, "bias_initializer": {"class_name": "Zeros", "config": {}}, "units": 1, "use_bias": true, "activity_regularizer": null}}], "backend": "tensorflow"}